{"format": "layers-model", "generatedBy": null, "convertedBy": "TensorFlow.js Converter v3.7.0", "modelTopology": null, "weightsManifest": [{"paths": ["group1-shard1of3.bin", "group1-shard2of3.bin", "group1-shard3of3.bin"], "weights": [{"name": "conv2d/kernel", "shape": [3, 3, 1, 32], "dtype": "float32"}, {"name": "conv2d/bias", "shape": [32], "dtype": "float32"}, {"name": "conv2d_1/kernel", "shape": [3, 3, 32, 64], "dtype": "float32"}, {"name": "conv2d_1/bias", "shape": [64], "dtype": "float32"}, {"name": "conv2d_2/kernel", "shape": [3, 3, 64, 128], "dtype": "float32"}, {"name": "conv2d_2/bias", "shape": [128], "dtype": "float32"}, {"name": "conv2d_3/kernel", "shape": [3, 3, 128, 128], "dtype": "float32"}, {"name": "conv2d_3/bias", "shape": [128], "dtype": "float32"}, {"name": "dense/kernel", "shape": [2048, 1024], "dtype": "float32"}, {"name": "dense/bias", "shape": [1024], "dtype": "float32"}, {"name": "dense_1/kernel", "shape": [1024, 7], "dtype": "float32"}, {"name": "dense_1/bias", "shape": [7], "dtype": "float32"}]}]}